…
2023-09-30 19:04:49,429 - initialize - INFO - Initializing test dataloader successfully.
2023-09-30 19:04:49,429 - initialize - INFO - Initialize all parameters successfully.
2023-09-30 19:04:49,430 - initialize - INFO - Details of all parameters: 
{'converters': {'ids2tags': {0: 'O', 1: 'B-Chemical', 2: 'B-Disease', 3: 'I-Disease', 4: 'I-Chemical'}, 'tags2ids': {'O': 0, 'B-Chemical': 1, 'B-Disease': 2, 'I-Disease': 3, 'I-Chemical': 4}}, 'device': device(type='cuda'), 'model': LM_ForTokenClassification(
  (lm): BertForTokenClassification(
    (bert): BertModel(
      (embeddings): BertEmbeddings(
        (word_embeddings): Embedding(30522, 768, padding_idx=0)
        (position_embeddings): Embedding(512, 768)
        (token_type_embeddings): Embedding(2, 768)
        (LayerNorm): LayerNorm((768,), eps=1e-12, elementwise_affine=True)
        (dropout): Dropout(p=0.1, inplace=False)
      )
      (encoder): BertEncoder(
        (layer): ModuleList(
          (0-11): 12 x BertLayer(
            (attention): BertAttention(
              (self): BertSelfAttention(
                (query): Linear(in_features=768, out_features=768, bias=True)
                (key): Linear(in_features=768, out_features=768, bias=True)
                (value): Linear(in_features=768, out_features=768, bias=True)
                (dropout): Dropout(p=0.1, inplace=False)
              )
              (output): BertSelfOutput(
                (dense): Linear(in_features=768, out_features=768, bias=True)
                (LayerNorm): LayerNorm((768,), eps=1e-12, elementwise_affine=True)
                (dropout): Dropout(p=0.1, inplace=False)
              )
            )
            (intermediate): BertIntermediate(
              (dense): Linear(in_features=768, out_features=3072, bias=True)
              (intermediate_act_fn): GELUActivation()
            )
            (output): BertOutput(
              (dense): Linear(in_features=3072, out_features=768, bias=True)
              (LayerNorm): LayerNorm((768,), eps=1e-12, elementwise_affine=True)
              (dropout): Dropout(p=0.1, inplace=False)
            )
          )
        )
      )
    )
    (dropout): Dropout(p=0.1, inplace=False)
    (classifier): Linear(in_features=768, out_features=5, bias=True)
  )
), 'test_dataloader': <torch.utils.data.dataloader.DataLoader object at 0x7fe0aa99fb80>, 'trained_epoch': -1, 'optimizer': Adam (
Parameter Group 0
    amsgrad: False
    betas: (0.9, 0.999)
    capturable: False
    differentiable: False
    eps: 1e-08
    foreach: None
    fused: None
    lr: 1e-05
    maximize: False
    weight_decay: 0
), 'scheduler': <torch.optim.lr_scheduler.ReduceLROnPlateau object at 0x7fe0ab3137f0>, 'train_dataloader': <torch.utils.data.dataloader.DataLoader object at 0x7fe0aa99fa90>, 'validation_dataloader': <torch.utils.data.dataloader.DataLoader object at 0x7fe0aa99feb0>}
…
